…
here you don't have full control of the loaded file. Please open an issue on GitHub for any issues related to this experimental feature.
  self.load_state_dict(torch.load(os.path.join(path)))
Namespace(adv_num=1, adv_temp=2.0, batch_size=1024, con_temp=0, dataset='MKG-Y', dim=250, disen_weight=0.01, epoch=1000, img_dim=4096, lamda=0, learning_rate=0.0001, lrd=0.001, lrg=0.0001, margin=4.0, miss_prop=None, miss_type=None, missing_rate=0.8, mu=0.0001, neg_num=128, postfix='', save='./checkpoint/MKG-Y-1024-250-128-0.0001-4-1e-4-1e-4-1000', seed=42, visual='random')
MCPaceRotatE(
  (ent_embeddings): Embedding(15000, 500)
  (rel_embeddings): Embedding(28, 250)
  (img_embeddings): Embedding(15000, 383)
  (text_embeddings): Embedding(15000, 384)
  (img_proj): Sequential(
    (0): Linear(in_features=383, out_features=500, bias=True)
    (1): ReLU()
    (2): Linear(in_features=500, out_features=500, bias=True)
  )
  (text_proj): Sequential(
    (0): Linear(in_features=384, out_features=500, bias=True)
    (1): ReLU()
    (2): Linear(in_features=500, out_features=500, bias=True)
  )
  (ent_attn): Linear(in_features=500, out_features=1, bias=False)
  (rel_gate): Embedding(28, 1)
  (adv_scores): Sequential(
    (0): Linear(in_features=500, out_features=500, bias=True)
    (1): ReLU()
    (2): Linear(in_features=500, out_features=1, bias=True)
  )
)

Test Tail: 2343 25 13740 1
metric:			 MRR 		 MR 		 hit@10 	 hit@3  	 hit@1 
l(filter):		 0.395184 	 1039.820068 	 0.469771 	 0.414570 	 0.350732 
r(filter):		 0.385072 	 1479.167480 	 0.453999 	 0.403305 	 0.346977 
averaged(filter):	 0.390128 	 1259.493774 	 0.461885 	 0.408937 	 0.348855 



0.461885
