…
Namespace(adv_num=1, adv_temp=2.0, batch_size=1024, con_temp=0, dataset='TIVA', dim=150, disen_weight=0.01, epoch=1000, img_dim=4096, lamda=0, learning_rate=2e-05, lrd=0.001, lrg=2e-05, margin=4.0, miss_prop=None, miss_type=None, missing_rate=0.8, mu=0.0001, neg_num=64, postfix='', save='./checkpoint/TIVA-1024-150-64-0.0001-4-2e-5-2e-5-1000', seed=42, visual='random')
9999999999999999999999999999999999
数据形状：
  batch_h: <class 'numpy.ndarray'>
  batch_t: <class 'numpy.ndarray'>
  batch_r: <class 'numpy.ndarray'>
  batch_y: <class 'numpy.ndarray'>
  mode: <class 'str'>
121212121212121212121212121212121212
MCPaceRotatEKuai16K(
  (ent_embeddings): Embedding(11858, 300)
  (rel_embeddings): Embedding(16, 150)
  (img_embeddings): Embedding(11858, 2048)
  (text_embeddings): Embedding(11858, 300)
  (audio_embeddings): Embedding(11858, 128)
  (video_embeddings): Embedding(11858, 2048)
  (img_proj): Sequential(
    (0): Linear(in_features=2048, out_features=300, bias=True)
    (1): ReLU()
    (2): Linear(in_features=300, out_features=300, bias=True)
  )
  (text_proj): Sequential(
    (0): Linear(in_features=300, out_features=300, bias=True)
    (1): ReLU()
    (2): Linear(in_features=300, out_features=300, bias=True)
  )
  (audio_proj): Sequential(
    (0): Linear(in_features=128, out_features=300, bias=True)
    (1): ReLU()
    (2): Linear(in_features=300, out_features=300, bias=True)
  )
  (video_proj): Sequential(
    (0): Linear(in_features=2048, out_features=300, bias=True)
    (1): ReLU()
    (2): Linear(in_features=300, out_features=300, bias=True)
  )
  (ent_attn): Linear(in_features=300, out_features=1, bias=False)
  (rel_gate): Embedding(16, 1)
)
111111111111111111111111111111111111111
222222222222222222222
Learning Rate: 2e-05
Finish initializing RAMMM trainer...
Epoch 0 | total loss: 5659.165192, memory loss: 0.000000, memory size: 1128
Epoch 1 | total loss: 1797.286598, memory loss: 76.544388, memory size: 1354
Epoch 2 | total loss: 752.534206, memory loss: 41.451851, memory size: 1524
Epoch 3 | total loss: 459.589561, memory loss: 42.877113, memory size: 1683
…
